PS1/model/best_model.pth (torch, 98150 bytes, 6 tensors)

fc1.weight f4 [128, 114]
00000000: 3c81 813d a8aa fcbc ca46 6ebc 339a 9a3d
00000010: 91ab 153e 5c16 a63d 099d cdbc 0708 bc3d
00000020: 43f5 2c3d 4e71 03be ca91 dbbd 4d3e 763c
00000030: a633 2c3d df73 69bd e49d 913d c809 bcbb
00000040: 9578 cf3d 1264 f33c e057 a6bd 9c53 78bd
00000050: 1ca9 99bc 15ff 57bc 4d80 c1bd 9cfa d73d
00000060: dde3 2bbd 989a 87bd f207 bf3d 25cc d73c
00000070: 9808 20bd df57 91bd af66 c3bd b165 f8bd
00000080: 2fd2 b33d e68a 8d3d 6152 cbbc c838 1c3d
00000090: 2763 1f3c 7e66 17be 91f3 e33c 1235 c2bd
000000a0: d68f cfbd 9d41 fc3c a3c9 0c3d aac3 58bd
000000b0: 459e b83c f705 123d c2a5 8dbd b1f2 68bd
000000c0: 58be c83d 0e82 03be 88e9 7739 901e 473d
000000d0: b768 bfbd c7db 153b 3337 863d 895a 873d
000000e0: 6a5f 993c 757e df3c 8c2b ffbd 43d1 bbbd
000000f0: 2801 363d 1e50 973d f14a bd3d 386b 6f3d
00000100: 4ae0 92bd fd5a b93d 5e2d fdbc ca32 9cbb
00000110: b72c 05bd 771e 143e 0764 c6bc e9fc d0bc
00000120: 6197 d2bd 2ef0 673d b579 4fbd 8535 f7bc
00000130: 1ad1 aebd 426c 2bbd 2fe0 36be 9412 903d
00000140: 02a6 1d3c d879 b4bd 5713 d6bd 527c 45bd
00000150: 1752 99bd c774 7e3c 8618 c73d 8507 e43c
00000160: 5af9 65bc 5dfe 053e 4abc ddbd bc37 2cbd
00000170: 034a d93c be7f 2d3e 9f6b cebc 68c5 30be
00000180: 7b0c 5fbd e37f 5cbd c9f4 00bd d759 86bc
00000190: 3b73 a0bc c947 b3bd e00c 253d c61a e5bd
000001a0: 0426 653c 48fb e83d d4ca e63d 8678 503d
000001b0: 5565 3f3b 91b2 cebc bef8 3abe abec efbd
000001c0: a704 17bd d28d 24bd 253f 33bd 8a78 8dbd
000001d0: 0fd9 c3bd 5b70 973c 5194 34bd ee80 633d
000001e0: 7d09 cabd 7fe8 4cbd 0924 d6bd 3a97 d3bd
000001f0: 0df0 7e3c 4c91 cebc eeca 05be 1f32 26be
00000200: 55d6 113d 2e69 b03d 7159 0d3d 627f 9fbc
00000210: 8542 d9bd 5396 523d 270b 31bd e954 48bd
00000220: 1bb4 813c cbc0 4d3b 3a21 383d fcbd 4e3c
00000230: 49eb 6bbc 8b5c 283d 412e ebbc 4e77 813d
00000240: 325a 9a3d cd02 07be 01cc cf3d 45ae d63d
00000250: 40cb fcbb 4e9c 09bd d9a6 a1bd 2ad3 c7bd
00000260: 6855 543d 3ad3 19be 3770 fd3a aadc e23c
00000270: 33ef a0bd 02f2 92bd e3ef 223d e9d7 30bb
00000280: f727 c43d 92b8 9a3c 6e96 433d 7ed1 533d
00000290: 1ab2 f53d 1fb7 27be d389 f5bd caa8 2bbc
000002a0: 84c0 b73d 4af5 403d fe7b 6f3d 08c8 5d3d
000002b0: 0597 1cbd 4aad 093c 861a be3d 493c b83d
000002c0: 3575 fcbd bb65 70bc 78da a1bd 1a22 ebbd
000002d0: 7c1c 6b3d bab7 de3c c1e4 cfbd 4509 083e
000002e0: 9ba9 7f3d e27a cc3c 2528 a0bd db9d c63c
000002f0: 9a88 82bd 9a3a 9cbd d733 35bd cd4f 343d
00000300: 88c1 e5bd fcbd 96bd 64f2 303d ccf5 aabc
00000310: 06ae 3fbc 28fc bfbd a8ba 363b d989 833d
00000320: 7a10 e2bd 3b31 7b3c 2f0e 0ebe 1457 5abc
00000330: b464 cfbd 4cb8 22be 0ded 20be dd4d 123e
00000340: 0ead 64bd 96dd 3cbd 3f6a d63d e38d 4cbd
00000350: 5a79 0cbd 2743 35be b2b5 aabc b018 7bbd
00000360: 8999 cdbc 1c0c 17be 7bf4 a23d 9cee e1bc
00000370: 7671 eabc c378 ae3d 829a 8e3d 322d 1dbb
00000380: 0f4f 28bc 9d13 993d b96c 39bc 6467 933c
00000390: 0594 643d 9385 ee3d 54a9 16bd 784e 8abd
000003a0: 2a40 a33d 7ddf 983b 94db 80bc 05c8 f3bc
000003b0: 213a 6f3d fa20 15be fb75 13be 266a 04be
000003c0: ef97 b43d 30fa a2bc 6995 2fbe 54f9 7b3c
000003d0: 2834 ae3d e1e2 c53d 8129 9a3d 4acc 863d
000003e0: e365 e7bc b405 5bbc f52d adbd 5b94 fbbc
000003f0: 38c1 8e3c 388b 523c b6df 43bc ea78 353d
0.063234776 -0.030843094 -0.014543245 0.075489424 0.14616229 0.081097335 -0.025099294 0.091812186
0.042226087 -0.12836191 -0.107211664 0.015029502 0.042041443 -0.05699527 0.07110193 -0.0057384707
0.10130421 0.029710803 -0.081222296 -0.06062661 -0.018757395 -0.013183375 -0.094482996 0.10545847
-0.041965354 -0.06621283 0.09327687 0.02634246 -0.039070696 -0.07096838 -0.0954107 -0.12128771
0.08780324 0.069112584 -0.024819555 0.03814009 0.00972823 -0.14785191 0.027826102 -0.094827786
-0.101348564 0.030793006 0.034371983 -0.052920975 0.022536406 0.03565022 -0.069163814 -0.056872074
0.0980193 -0.1284258 0.00023642753 0.04861313 -0.09346145 0.0022866593 0.06553497 0.06609065
0.018722255 0.02728198 -0.12459478 -0.09170773 0.044434696 0.07388328 0.092428096 0.05845186
-0.07171686 0.09050558 -0.030905422 -0.0047667967 -0.032513347 0.14464746 -0.024217619 -0.025511222
-0.102827795 0.056625538 -0.05065318 -0.030176887 -0.08535977 -0.04185129 -0.17858957 0.070347935
0.009622099 -0.08812302 -0.104529075 -0.048214264 -0.074863605 0.015530772 0.09721474 0.027835617
-0.014036501 0.13085313 -0.10826929 -0.04204534 0.02652455 0.16943261 -0.025197802 -0.17262805
-0.05445526 -0.0538329 -0.031483445 -0.01640026 -0.019586196 -0.08753926 0.04029548 -0.11186747
0.013986114 0.11376053 0.11269155 0.05089619 0.0029204686 -0.025231631 -0.1825895 -0.11715063
-0.03686967 -0.040174313 -0.04376139 -0.069077566 -0.09562885 0.018486192 -0.044086758 0.05554288
-0.09865091 -0.050026413 -0.10456092 -0.103315786 0.015560162 -0.025215767 -0.13065693 -0.16230057
0.035604794 0.086138114 0.034509126 -0.01946992 -0.10608391 0.05141289 -0.043223526 -0.0489091
0.015832951 0.003139543 0.044953562 0.012618538 -0.014399358 0.04110388 -0.028708579 0.06321584
0.07536735 -0.13184662 0.101463325 0.10482458 -0.007714659 -0.03359633 -0.07893152 -0.09757073
0.051839262 -0.15021983 0.0019335811 0.027693111 -0.07858124 -0.071750656 0.039779555 -0.0026984161
0.09577935 0.018886838 0.047750883 0.05171346 0.11996861 -0.16378449 -0.119891785 -0.010477254
0.08972266 0.047108926 0.058467858 0.054145843 -0.03822996 0.008403132 0.09282403 0.089958735
-0.12327043 -0.014672692 -0.07902998 -0.11481114 0.05740021 0.027187217 -0.10151053 0.13284786
0.062417608 0.024960939 -0.07820157 0.024245193 -0.06373711 -0.07628365 -0.04423889 0.044021416
-0.11218554 -0.073604554 0.04319991 -0.020869158 -0.011699205 -0.09374267 0.0027882252 0.06422777
-0.11038299 0.015331562 -0.13872598 -0.013326425 -0.101266295 -0.15890616 -0.15715428 0.14287515
-0.0558291 -0.04610976 0.104694836 -0.04994 -0.034295417 -0.17701398 -0.020838592 -0.06130284
-0.025097625 -0.14750713 0.07956787 -0.027579598 -0.028618556 0.08519127 0.06963064 -0.0023983237
-0.010272755 0.07474444 -0.011317425 0.017993636 0.055805225 0.11646571 -0.036782578 -0.06753248
0.07971223 0.0046653138 -0.015729703 -0.029758463 0.058405045 -0.14563361 -0.14400475 -0.12931117
0.088180415 -0.01989469 -0.17146839 0.015379269 0.08506042 0.09662414 0.075274475 0.06581934
-0.028246826 -0.013368059 -0.08456031 -0.03071039 0.017426118 0.012850575 -0.011955192 0.044304766

fc1.bias f4 [128]
00000000: 4d64 253e d095 033e 7849 953d 45e4 df3d
00000010: 406e 5e3e 9448 833d 212c 173d 6bb2 033e
00000020: 1495 b43d 6322 e43d b19c 073e 03f4 aa3c
00000030: 3e81 a83d 4abd a33d 33c7 043e 881b ea3d
00000040: 8ca5 4f3e b0e3 1c3e c370 073e 2b7d 313e
00000050: 3290 9e3d 89aa 403e d59f 4b3e 7625 383e
00000060: e395 993d aa93 c13c 78ed e8bc 1e71 f83c
00000070: e1d5 153e 2031 593d e08e 1139 eff4 833d
00000080: 2f49 ff3d c8fd 4c3d 9c08 bb3d b5ac a93d
00000090: b239 323e 7fa9 5e3d 700f 323d 13f6 213d
000000a0: e6ec 213e 1d7e d73d cce5 dd3d 6182 da3d
000000b0: 1cf4 f23d 4147 453e 8268 8ebc 3726 3a3e
000000c0: 97f6 d63d d640 4a3d d42f 8d3d 5f01 8c3d
000000d0: 28d3 6c3d 4d3b e43d 96aa 0f3d 78c6 bf3d
000000e0: ab77 79bc 73ac a13d f37c 95bc 4012 333e
000000f0: d270 023e 0ee3 3abd 85a6 4a3d 8a2b 1d3d
00000100: fb08 123d 0ea4 003e 63bf e93d 85fa 643d
00000110: 0474 a33d 26d8 4d3e 1b90 5f3c 945f 74bd
00000120: 012e bd3c 858e 903d e00e 043e 45be 443e
00000130: 446b b33c e06b d83d 81f2 1a3e 3016 3a3e
00000140: c08c cc3d 09b1 d03c d985 7f3d e8a8 3c3e
00000150: 000d 933d da6c f33d 6105 f43d 47e2 c73c
00000160: 756d 2e3e f2ce 833d af62 db3d bd5d 5f3e
00000170: 0498 073e e7b2 aa3c 03c2 193e b8b5 553e
00000180: 1587 953d e2e1 233d cf83 ab3b fed9 353e
00000190: bd8a 3f3d cf5f dd3d 91e1 113e 7ecd 153e
000001a0: 5c7e 323d 612c 343e cfe6 8f3d 89e4 483e
000001b0: 82ae 1b3e 833d 633d 9b6b 02bd 8cc4 f73d
000001c0: 5178 2c3e ef31 d33d 6148 a83d 60c5 043e
000001d0: 36e1 383e 88e7 d5bc 2941 3fbd d516 193e
000001e0: adb9 fbbc 7cb1 2abd d1b4 853d c361 94bd
000001f0: a166 3c3e efaa d13d 50d2 213e 5be2 723d
0.16151543 0.12850118 0.07289404 0.10932211 0.21721745 0.064103276 0.03690732 0.1286103
0.08817497 0.11139371 0.13243367 0.020868307 0.08227776 0.079950884 0.12966613 0.114310324
0.20277995 0.15321231 0.13226609 0.17332904 0.07742347 0.18815054 0.1988519 0.1798304
0.07499292 0.023629982 -0.028433546 0.030327376 0.1463237 0.053025365 0.00013881503 0.06443202
0.124651305 0.050046712 0.091325015 0.082848944 0.17404822 0.054360863 0.043471754 0.039541315
0.15813026 0.10522101 0.10834846 0.10669399 0.118629664 0.19265462 -0.017383818 0.1817864
0.10496252 0.04937824 0.06893888 0.06836199 0.05781856 0.11144123 0.035074793 0.09364027
-0.015226285 0.0789422 -0.018248057 0.1748743 0.1273835 -0.045626692 0.04947521 0.0383716
0.035653096 0.12562582 0.11413457 0.055902977 0.079811126 0.20101985 0.013645197 -0.059661463
0.023093225 0.070584334 0.128963 0.19213207 0.021901734 0.105674505 0.1513157 0.18172526
0.099877834 0.025475042 0.062383506 0.18423808 0.07180214 0.11885996 0.119150884 0.02439989
0.17033942 0.06435956 0.10712182 0.21813102 0.13241583 0.02083726 0.15015416 0.20870101
0.073011555 0.04001034 0.0052342187 0.17758939 0.04676317 0.1080929 0.14246203 0.1462917
0.043577537 0.17595054 0.07026445 0.19618429 0.15203288 0.055478584 -0.0318409 0.12098035
0.16842772 0.103122585 0.0821693 0.12965918 0.18054661 -0.02611138 -0.046693 0.14950116
-0.030728186 -0.04167317 0.065286286 -0.07245209 0.18398525 0.10237681 0.15802884 0.0592979

fc2.weight f4 [64, 128]
00000000: 9c5e 43be e509 303d 300c 973b f6f2 51bd
00000010: 1348 b13d c0b6 6e3d acd2 3d3c 50c8 003d
00000020: 4da6 003e 7c9b 20be 1218 b9bc f3bb ccbd
00000030: 0130 febd 4c17 1ebd 7491 c73d 5e6e 313e
00000040: 93a9 1f3e f9a0 933d 4a86 e13d d7d9 cf3d
00000050: 4e45 003e 9a77 c03d bcb7 333e 97ef 34bd
00000060: fa6f 823a 60d9 0e3e 6260 953d e88c 453d
00000070: b79d 7dbc dbcc 103d 0649 bebb 297c 2c3e
00000080: f2a1 373a 58c9 bc3d 1d39 7bbd 7b8d d43d
00000090: 2544 243e dd9e d63d f566 cf3d a78a aa3d
000000a0: 6d13 043e 14ee 8e3d 87c0 cabc f836 463e
000000b0: 287e 8abd f68f 823c e3e8 cd3c 80d1 033e
000000c0: 2229 8dbc c9d6 283e 6f0d 963c b89a 143d
000000d0: b958 253d c36e a9bc eda4 783d fcb3 e83d
000000e0: f530 4a3e 78d5 5a3e 1275 0c3d 5f7f de3c
000000f0: 8ddf 35bc 2c67 053e 03bf 103e 8cfc 30bc
00000100: c66d 183e b9b0 31bd 15d6 f7bc 28da 90bc
00000110: 479c a3bc 8fcd 343e f925 d0bd 48fb c8bd
00000120: aa0c 91bd 0df3 163e f466 c03d fe1d 213e
00000130: 7ed1 0d3d 2bd0 323e 1c00 cd3d 6d4f ef3d
00000140: 95da f03c 4c51 1f3e 55e1 8fbd 138f 7fbd
00000150: 7b54 0e3e 49ee 6bbd 40a8 503d fb5e 4dbc
00000160: c166 bb3b 610d d23d e55c f93d dca5 6e3d
00000170: 40e6 003e 9a2a 0abe e22c d93d 5cbb 0b3e
00000180: 77ad 4f3d 78c2 e03d f329 833d 0dce 24bd
00000190: 98a8 5ebb 15f7 193e 7523 933d fdb0 5b3b
000001a0: ca4f 8abd 2895 07be c168 f53b 7628 81bc
000001b0: a906 033e 3a29 38bc 6901 d3bc 6329 a53d
000001c0: 8f28 78bd 906d 00bd 16d7 dbbc e052 9e3d
000001d0: 7d35 623e 4423 43bd 78a2 083e 7f66 3b3e
000001e0: 0470 083e 1dfb 54bd e3be a63d 1bd9 12be
000001f0: 164e dc3d 2140 d9bc 1c26 553e 086e 85bd
00000200: dda9 0a3e 6686 ec3c 3f0d bdbd fd01 303c
00000210: d85b 32be ebe9 4abc fce6 8e3d 4675 a73d
00000220: 8f0c 85bc b19e d63d ff72 023d 797f 43bd
00000230: 1260 b03d 8bf3 27be 469c 58bd 3b5e c23d
00000240: 46a3 e73c 6052 333e c330 783d 8cdf abbd
00000250: 3a82 b3bd 9c5b c4bc 9c15 7bbd 2ae8 33bc
00000260: 9066 f03d dd77 3fbb e598 653d 937f 463e
00000270: c66c 9a3b e7c7 9dbd 066a eb3d 9259 0dbe
00000280: 722f 5abc 70be 08be b671 b73c f429 ec3d
00000290: 7ec2 3bbd 498d 32be 2753 02bd 769f 143e
000002a0: 2689 b73d 7c69 273e 5cfa b8bd 7695 ab3d
000002b0: 72df e3bd b37c dc3c 53a7 033d 575a 25bb
000002c0: 8136 01bd dbb6 c43d a3a8 0a3e 2730 d43d
000002d0: 2ccf db3d 50dc 59bd 66c8 153e e31a 11be
000002e0: 193e 87bc e8cb 183e 2794 273d a385 9e3d
000002f0: e7e2 113e edb3 6dbd eec7 26bc 0f62 c83d
00000300: 01b4 9cbc 13a4 3dbd 2b1b 10bd 0420 a0bd
00000310: ccc7 053e 7617 1e3e 95ba 953d 5135 d2ba
00000320: 5bfd d83d f39b 543d 255e f0bc 1684 773c
00000330: 4471 0a3e 9f75 47bd 46ac 5c3c af04 db3d
00000340: 750e 243c d2e8 2fbe d41e c83c dbc7 9bbb
00000350: c85e 95bd ee03 903c c35b b9bc 68d7 333d
00000360: 39d9 d63d 042e 0e3e 6e5e adbd d422 053d
00000370: 62bd 27bd 85c7 abbd 38fd 54bd fc6f 923d
00000380: 1853 26bd 8831 0d3e 1003 a2bb 6f9a f7bd
00000390: aa28 df3d cce2 20bd 03f1 b3bd 0f29 0abd
000003a0: 925b c33d 0ebc 2abd 2017 043e 6475 893d
000003b0: a901 ea3d 0274 5dbc c3eb 0ebe adca e63d
000003c0: 9760 3a3b 4ed1 0a3e c241 a8bd 1870 adbd
000003d0: 60b1 71bc db1e 16bd 1f9c 04be de98 10bd
000003e0: f4f6 1cbe 4efa f63d ec64 d63d 1bab e5bc
000003f0: 5265 5a3d ea88 843d 2a51 21bd 5488 06bc
-0.1907906 0.042978186 0.004609607 -0.051257096 0.08656325 0.058279753 0.011585873 0.031441033
0.12563439 -0.15684313 -0.022594485 -0.09996786 -0.124115 -0.038596436 0.0974454 0.17327258
0.15592031 0.072084375 0.11011942 0.101489715 0.12526438 0.09397812 0.17550558 -0.044173803
0.0009951585 0.1395011 0.07293774 0.04823008 -0.015479497 0.035351615 -0.005807045 0.16844238
0.0007005028 0.09218091 -0.061333764 0.10378548 0.1604162 0.104795195 0.10127059 0.08327227
0.12898035 0.069790035 -0.024750007 0.19356906 -0.06762344 0.015937787 0.025135463 0.12872887
-0.017231528 0.16488184 0.018316953 0.036280364 0.040367816 -0.020682698 0.06070416 0.11362454
0.19745238 0.21370494 0.034291334 0.027160345 -0.011100662 0.13027638 0.14135365 -0.010802399
0.14885625 -0.043381426 -0.03025345 -0.01768215 -0.01997198 0.1765654 -0.10163493 -0.09813553
-0.070824936 0.14741154 0.09394637 0.15734097 0.034623615 0.17462222 0.100097865 0.11685071
0.029401103 0.15558356 -0.070254005 -0.062392306 0.13899414 -0.057600293 0.050941706 -0.012534852
0.0057190363 0.10256458 0.12175921 0.058263645 0.12587833 -0.13492814 0.10604264 0.1364569
0.05070254 0.10974592 0.064044856 -0.040235568 -0.0033975001 0.1503566 0.07184497 0.0033522241
-0.067535 -0.13240492 0.0074892943 -0.015766364 0.1279551 -0.011240298 -0.025757508 0.080645345
-0.060585555 -0.031354487 -0.02683596 0.07730651 0.22090717 -0.047641054 0.13343227 0.18300818
0.1332398 -0.051997293 0.081418775 -0.14340632 0.10757081 -0.026519837 0.20815319 -0.065151274
0.1354136 0.02887268 -0.09231042 0.010742662 -0.17417848 -0.012384872 0.069776505 0.08176665
-0.01624134 0.10479487 0.03184795 -0.04772899 0.08612074 -0.16401498 -0.05288341 0.09490629
0.028276097 0.17511892 0.060593378 -0.083922476 -0.08765073 -0.023969464 -0.061299905 -0.010980645
0.11738312 -0.0029215731 0.056054015 0.19384603 0.004712674 -0.07704144 0.11494832 -0.138037
-0.013316976 -0.13353896 0.022393089 0.115314394 -0.04583978 -0.17436709 -0.03181758 0.14513955
0.08961706 0.16348833 -0.09032127 0.08378117 -0.11126603 0.02691493 0.032141995 -0.0025230849
-0.03154612 0.096051894 0.13540892 0.10360747 0.10732874 -0.053188622 0.14627227 -0.14170413
-0.016509103 0.14921534 0.040912773 0.07740333 0.14246713 -0.05803292 -0.010179503 0.09784328
-0.019128801 -0.04629905 -0.03518216 -0.078186065 0.13064498 0.15438637 0.07310978 -0.0016037618
0.10595199 0.051906537 -0.029341767 0.015107175 0.1351977 -0.048696157 0.013468808 0.10694253
0.010013212 -0.17178658 0.024428762 -0.0047540492 -0.07293469 0.017579999 -0.022626763 0.0439066
0.10490651 0.13884741 -0.08465277 0.032503918 -0.040952094 -0.08387665 -0.0519993 0.071502656
-0.040606588 0.13788426 -0.0049442127 -0.12090003 0.10896428 -0.03927879 -0.08786204 -0.033730563
0.0953895 -0.04168325 0.12899446 0.067118436 0.11426098 -0.013516428 -0.13957123 0.11269126
0.002843892 0.13556406 -0.08215667 -0.08468646 -0.014751762 -0.03665052 -0.1295018 -0.035302036
-0.1532858 0.120594606 0.10468468 -0.028035691 0.053319283 0.06471427 -0.039384045 -0.008211214

fc2.bias f4 [64]
00000000: 643a bf3d 1825 993d 6265 25bd 3ade 0a3e
00000010: 5904 06bd c3df 533d 9c72 183d 58c4 c8bd
00000020: c862 aa3d 7003 d4bb 3a65 a2bd 6ee2 eebb
00000030: b3d7 4abc 66cc 713d 76c8 063e 055d 933d
00000040: f21d f83d b27f b73d 9a97 bb3d 6c6e 633c
00000050: 5c96 1f3e 6c6b 94bd 73ee 153e 349e f43d
00000060: d078 943d 3b0c 4f3c 1460 9cbc f713 a53d
00000070: a687 373e 3274 253d e373 98bd edc0 7fbd
00000080: 100d e7bd 71a4 5b3d fc73 4ebd 6cc3 323d
00000090: 3daf 71bd a1b3 aa3b 5ddc 063e 0b06 b7bd
000000a0: 917a 063d eb93 b3bd 10a7 1c3e 7299 15bc
000000b0: ec41 4ebd f582 863d 960a ce3d b283 073e
000000c0: d0e6 53bd 8a66 f73d 124c f83c 4b91 a0bd
000000d0: 0a83 0c3e c3de 0fbc 62fa 5abd b929 c9bd
000000e0: 9320 343d 451f c93d db3f 8cbd 28a2 173c
000000f0: 81cc 29bd 7dd3 8cba c2cf f63c 693b 033e
0.09337309 0.07477778 -0.04037989 0.13561335 -0.03271899 0.051727068 0.037218675 -0.098030746
0.08319622 -0.0064701363 -0.07929464 -0.007290176 -0.012380528 0.05903282 0.13162407 0.071954764
0.121150866 0.08959903 0.09159775 0.013881307 0.15584701 -0.072470516 0.14641742 0.11944237
0.07249606 0.012637193 -0.019088782 0.080604486 0.1792284 0.040394016 -0.07443979 -0.062439848
-0.11281788 0.05362362 -0.05040358 0.0436434 -0.05900501 0.0052094017 0.1317 -0.089366995
0.032831732 -0.087684475 0.15298104 -0.0091308225 -0.050355837 0.06567947 0.10060613 0.13233832
-0.05173379 0.12080105 0.03030971 -0.078402124 0.13721862 -0.008781138 -0.05346144 -0.09822411
0.043976378 0.09820417 -0.06848117 0.00925497 -0.041454796 -0.0010744181 0.030128364 0.12815632

fc3.weight f4 [14, 64]
00000000: c536 b3bd a027 68be 89c1 fb3d e23f f93d
00000010: ae11 10be ea50 ef3d 890f 99bc 6171 98bd
00000020: 2eb4 36be 3a51 77bd a0c3 2fbe 968f df3d
00000030: 2e94 9d3d d8ca cc3d c137 4b3e 64c1 b4bd
00000040: 04bd d0bd 1497 5b3d 48a5 203e 4c76 113e
00000050: 101f d83d 1e97 2ebe e2e5 02bd 3c8e 4d3e
00000060: a8a4 25be 96ca d33b e499 06bc 8132 833c
00000070: 05fd 96bd 31f3 913c 661e 26be 1b44 64be
00000080: bc41 1abe 0b49 25bd d384 80bd ba14 44be
00000090: a1f7 b7bd 448f 213e eb9c 433e a8d7 4abe
000000a0: aa2f 103e 113f cb3c 8135 b63c 03f7 1bbe
000000b0: bcd1 f9bc 8531 fe3d 1219 7d3d c66d 6f3d
000000c0: 93e9 47be 244f 263e 0f63 9dbd 4d8c 7dbd
000000d0: 905a 383e 3f88 373e 875e c3ba 3b80 d5bd
000000e0: 08f1 2dbe 7c90 be3d 8410 07be 404d 75bd
000000f0: 5cd1 32be c919 2dbe dec7 e93c 79bb 0e3e
00000100: dc10 683d e8c4 103e f590 35be 9f3e 84be
00000110: 04b2 363e fdb0 f53d 71a9 2c3e c3be 053d
00000120: 76f2 ddbd 3268 a5bd 8f4b bbbc 48b6 24be
00000130: 5648 913d 2444 ea3d a441 fabc 9849 fd3d
00000140: 8909 4abe a57d 21bb 1979 063d c32d 83bd
00000150: e742 76be 73c9 293e fa62 74be 15e4 1cbe
00000160: c098 7dbd 4d7d 1fbe 70a2 47be 16e4 69be
00000170: 2801 09be ed2c 81be 7137 273e ccf6 71bd
00000180: d4dd b43c 87f6 28be 916a d73d e723 0d3e
00000190: da13 503e b8c5 0abe 96e6 48be f5d3 8e3d
000001a0: 4232 06be 1c67 433e a759 55bd b335 e4bd
000001b0: cc8a 603d 0cae 6f3d b1e7 05be bc75 503d
000001c0: 77cd 4e3e 8bab 22bc f1b8 613e 90f0 633d
000001d0: 995b 6abe b267 cdbd 45de 153e dfe1 8f3d
000001e0: 042b d1bb f86b 0dbe dd15 633e b2f7 373e
000001f0: 335c 943d 3f5f 0b3d 1788 75bd 8917 76be
00000200: 83dc 6abe 43e5 4e3e db2b ce3d 8f14 88be
00000210: 81b2 84bd ea47 04bc 398e f8bd e66a 2c3e
00000220: dc33 b73b 892c 84bd debb f73d 2ab0 ff3d
00000230: d25c 1cbc d721 1fbe df3b 33be 5225 65be
00000240: 0fc5 48ba db5b 533d 1ed9 be3d 0fb7 e5bd
00000250: 1152 6abe ebff 3d3e f241 2abe ef9d 48bd
00000260: 985f 85bd 7543 19bd 6d8f 21be 223d 10bd
00000270: d778 07bd 619c 553d 7ed3 84bd ea54 123e
00000280: d22d 11bd 424a a0bc 089e 583e caaf d93c
00000290: f5fd 4a3e ca3e 68bc 8596 013c cc52 883e
000002a0: 9c28 0bbe 15dd 663e 0150 93be ff3e 053d
000002b0: 9ea2 8f3c 5e06 db3d d1bc 5dbe 3425 b7bc
000002c0: 7236 20bd 5563 b73c 670d cb3c 6db5 513e
000002d0: fd42 2c3c 4758 163d 046d 8dbd add4 523d
000002e0: 47a6 3c3e 59d5 34be ce51 89bc 5039 92bd
000002f0: 0d70 523e a377 8a3d 1072 5c3e 9379 f9bd
00000300: b6bc c4bd 1a6c 943d e379 a73c 6528 dabd
00000310: c6b4 be3c ce1c 013e 3c01 163e 46fb 333e
00000320: 2aca 61be 9b43 353e 7cb2 4dbd 711e 75bd
00000330: 0aa4 c03a 6208 f03d 6e0f 5ebe 9efc b9bd
00000340: a0c7 4fbe 1ce3 c4bc a284 8bbe f51b 55be
00000350: 3f96 443d 818f 493e 864b 63be 9e74 98bd
00000360: eb3f 21be 6bbd 1c3c 4783 b8bc b185 4e3d
00000370: 83ce 26bd c5ee b6bd 9217 26bd 197e 8e3d
00000380: 16d0 783d e70c 60be e496 8c3d a088 ae3d
00000390: 58ff 323e 581f 83bd f3ac 2dbd aa34 c23d
000003a0: 8fb5 76be f42c e93d 6651 1dbd 10cc 14bb
000003b0: 8919 5e3e b648 d53d 1bbe 57bd fab2 f8bd
000003c0: 2307 3f3d fe96 3b3d 4b35 763d 1e0c a43d
000003d0: 3d92 2bbe 2f1b 54be 6c95 333e 0023 debb
000003e0: c656 c1bd b253 34bd 6479 223e 5387 4b3d
000003f0: e0b2 5f3d 3717 2f3e 6a78 6dbd e96e 59be
-0.08750681 -0.22671366 0.12292773 0.12170388 -0.14069244 0.11685355 -0.018684166 -0.074435
-0.1784217 -0.060380198 -0.17164469 0.10916059 0.07694279 0.09999627 0.19845487 -0.08825949
-0.10192302 0.053610876 0.1568805 0.14205283 0.105528 -0.17049834 -0.031957515 0.2007379
-0.16176093 0.006463359 -0.008215401 0.016015293 -0.073724784 0.017816158 -0.16222534 -0.22291605
-0.15064138 -0.040352862 -0.06275334 -0.19148532 -0.08982778 0.15777308 0.19102828 -0.19808829
0.14080682 0.024810346 0.02224231 -0.15230946 -0.030495517 0.12411789 0.061791487 0.058454297
-0.19522695 0.16241127 -0.076849096 -0.06190138 0.18003297 0.17923068 -0.0014905491 -0.10424849
-0.16986477 0.09304902 -0.13189894 -0.059888124 -0.17462677 -0.16904368 0.028537687 0.13938703
0.056656703 0.14137614 -0.17731078 -0.25829026 0.17841345 0.119966485 0.16861512 0.032652628
-0.108372614 -0.08076514 -0.022863178 -0.1608516 0.07093875 0.11438778 -0.030548878 0.123675525
-0.197302 -0.002464154 0.03283033 -0.06405213 -0.24048959 0.16580753 -0.23865882 -0.15321381
-0.061913252 -0.15575142 -0.19495559 -0.22840914 -0.13379347 -0.25229588 0.16329743 -0.059073254
0.022078432 -0.16500293 0.10518373 0.13783227 0.20320073 -0.13551986 -0.19619212 0.06974021
-0.1310511 0.19082302 -0.052087452 -0.11143055 0.054819867 0.058515593 -0.13076665 0.05089353
0.20195566 -0.009928594 0.22043206 0.05564934 -0.22886504 -0.10029544 0.1463557 0.07025503
-0.0063833017 -0.13810718 0.22176309 0.17965582 0.07244148 0.03402638 -0.05994424 -0.24032415
-0.22935681 0.20204644 0.100669585 -0.26578185 -0.064793594 -0.008073786 -0.12136502 0.16837654
0.005590899 -0.06453807 0.1209638 0.124847725 -0.009543614 -0.15540253 -0.17503308 -0.22377518
-0.00076587585 0.051601272 0.093187556 -0.11216556 -0.22882868 0.18554656 -0.16626719 -0.048978742
-0.06512374 -0.037417848 -0.15777369 -0.03521455 -0.033074226 0.052151088 -0.064856514 0.14290205
-0.03544409 -0.019566659 0.21154034 0.02657308 0.1982344 -0.014175126 0.007909422 0.2662567
-0.1358971 0.22545274 -0.28771976 0.03253078 0.017533597 0.10694574 -0.21654059 -0.022356607
-0.039114423 0.022386232 0.024786664 0.20479365 0.010514018 0.03670528 -0.06905559 0.051472355
0.18422805 -0.1765951 -0.01676264 -0.07139838 0.20550556 0.067611 0.21527886 -0.121813916
-0.09606306 0.07247181 0.020443862 -0.10652236 0.023279559 0.12608644 0.14648908 0.17576322
-0.22049776 0.1770157 -0.050219044 -0.059843484 0.0014697325 0.11720349 -0.21685573 -0.09081386
-0.20290995 -0.024034075 -0.27249628 -0.20811446 0.04799485 0.19683649 -0.22196779 -0.07444118
-0.15747039 0.009566645 -0.022523535 0.050420467 -0.04072429 -0.089322604 -0.040549822 0.06957645
0.06074532 -0.21879922 0.068647176 0.08522153 0.17480218 -0.06402463 -0.042401265 0.09482701
-0.24092697 0.11385527 -0.038407706 -0.0022704639 0.21689428 0.10414259 -0.052671533 -0.12143512
0.046637665 0.045798294 0.060109418 0.08010124 -0.16755004 -0.20713495 0.17537469 -0.0067790747
-0.09440379 -0.04402513 0.1586662 0.049689602 0.054613948 0.170987 -0.057976164 -0.21233715

fc3.bias f4 [14]
00000000: 6367 093e 3e2d 2bbd 47a4 593d 9575 353d
00000010: 4c92 1f3d ae3b 5f3d 8462 13bd 39b2 f0bd
00000020: cb68 263d a4d9 913d e36c b5bd 4252 653d
00000030: 09e0 723c d07a 7bbd
0.13418345 -0.041791193 0.053135183 0.044301588 0.03895788 0.054500274 -0.035982624 -0.11752743
0.040627282 0.0712159 -0.08858659 0.05598665 0.014823922 -0.06139642
